models/gnn/gnn_model.onnx (onnx, 440758 bytes, 6 tensors)

model.chromatic_head.3.bias f4 [64]
00000000: ee7d 5b3d d51b 88bc 53e9 3cbd 650d 05bc
00000010: 8579 cbbc 31ed afbc 2c13 3c3d 27e1 4fbd
00000020: 7eca ddbc efc6 7abb deb2 00bd 2a2c 8fbc
00000030: be7a 94bd cb8e 55bc 8b65 03bd 57a9 9e3b
00000040: 57ca 9e3d dfb5 77bd 293f 873d 764f d13b
00000050: 8072 cb3c c240 04bd dbb9 26bd 8332 3ebc
00000060: df20 153d b31f 82bd 4aa8 983c 7ce1 77bd
00000070: 5e25 a33d f0cf e93b 729e 533d b03e 09bd
00000080: b935 87bc e7c8 353d 16bc 66bd fa33 423d
00000090: c724 573c 1581 633c 58c5 0bbd 30c0 f0b8
000000a0: 3b5f 193d 9675 16bd 21e7 fe3c 3af0 ce3b
000000b0: f4af 03bd f14d 11bc 3ffd 42bc 72c5 6dbd
000000c0: a149 193d f353 7c39 011f 8fbc e946 153d
000000d0: 1a66 f23b 979e f2bc 0e14 c63a 9bc2 90bc
000000e0: 8a4a ecbb d8df e4bc 927c 02bb d205 58bd
000000f0: d5a2 90bd 2ed4 3d3a a505 20bd f2c2 963d
0.053586893 -0.016614834 -0.046120953 -0.008120869 -0.024838218 -0.021475406 0.04591672 -0.05075183
-0.027074095 -0.0038265546 -0.03142058 -0.017477114 -0.07249974 -0.013034533 -0.03207926 0.004841964
0.07753437 -0.06047618 0.06603844 0.0063876463 0.024834871 -0.03228832 -0.04070459 -0.011608723
0.0364083 -0.063537024 0.018634934 -0.060517773 0.079661116 0.007135384 0.051664777 -0.03350705
-0.01650511 0.04438105 -0.056331716 0.04741285 0.013131327 0.013885756 -0.03412375 -0.000114798895
0.037444334 -0.036733232 0.03111607 0.0063152583 -0.032150224 -0.00886868 -0.011901199 -0.058049627
0.037423734 0.00024063866 -0.017470839 0.03644458 0.0073974254 -0.029616637 0.0015112178 -0.01767092
-0.007211034 -0.027938768 -0.0019910675 -0.052739926 -0.07062308 0.0007241395 -0.039067883 0.073614016

model.chromatic_head.5.weight f4 [1, 64]
00000000: 8323 d83c ea07 36bd d307 88bd d88c 91bd
00000010: 117b 723d bc0c a7bd 2070 2d3c d1f0 1bbd
00000020: d921 a1bd 27d9 4039 155e 88bc ef9c 543c
00000030: 824d a3bd f9cd c7bd 670d 0ebb 805d a8bc
00000040: 032e bb3d 4643 abbd 845c ff3d 7b36 97bb
00000050: f89c fe3c fa32 26bd 1022 b5bd 840b 1f3c
00000060: 33cf 05bc 8da0 a5bd 2724 b13d dd12 d3bd
00000070: da07 023d d365 75bd cbcc 003c 72a4 6cbd
00000080: 1212 aabc cff7 b13d 507d 4dbd 6d26 ed3d
00000090: 1ab7 8c3d ac07 d93b 8320 9cbc ca6f d4bd
000000a0: f2a9 df3d f122 b23d 432c adbd 3516 e33d
000000b0: b0bf 603d bcdc c8bd 1b56 aabd 6e7a 31bd
000000c0: 5832 503d a380 c8bd dfec 39bc e6a3 a5bd
000000d0: 89e9 b4bd 958c 613c 403d c2bc 119c c43d
000000e0: 3552 b43d b0a4 ea3b d130 dd3d f76f 23bd
000000f0: 5c58 98bc 2cb2 39bb 32f2 bbbd 95a5 113c
0.02638412 -0.04444114 -0.06642117 -0.07106942 0.059199397 -0.08156726 0.010585815 -0.038071457
-0.07867784 0.00018391442 -0.016646424 0.012976869 -0.07973768 -0.09756083 -0.002167547 -0.020552397
0.091396354 -0.08362441 0.12468818 -0.004614649 0.031080708 -0.04057596 -0.088443875 0.009707335
-0.008167076 -0.08087263 0.08649474 -0.10306332 0.03174577 -0.05991156 0.007861326 -0.057774015
-0.02076057 0.08689844 -0.050168335 0.11579595 0.06870861 0.006623229 -0.019058472 -0.103728846
0.10921086 0.08698071 -0.08455708 0.1108822 0.054870307 -0.09807727 -0.083172046 -0.04332965
0.05082926 -0.097901605 -0.011347978 -0.08087902 -0.08833606 0.0137664275 -0.023710847 0.0960008
0.08804742 0.0071607456 0.108003266 -0.0399017 -0.01859682 -0.0028334958 -0.091770545 0.0088895755

model.graph_type_head.3.bias f4 [64]
00000000: 5339 563d 8b26 f2bc 4b07 fa3c 7ba9 57bd
00000010: 15b1 74bd 1066 0cbd 1dea 65bb 48ce 823d
00000020: 2201 1f3d b8f4 083c d65c 2bbd 45e9 4b3c
00000030: 9721 e13b 4d95 a3bb 96b2 16bd d504 40bc
00000040: 1433 9e3c c128 043d 86cb 60bd ffd2 023d
00000050: 3c24 583d 64ec 1abd 84a4 9fbc 53f9 50bd
00000060: 7666 50bd b3b5 40bb bf87 04bd 86b3 113d
00000070: c3b8 cb3c 3be8 bfbc 4de3 db3c dcce 383d
00000080: 1764 0f3d ff8c 4dbd 4d1d 0cbb 0d48 6bbd
00000090: 5afd 43bd 4a83 98bc 6ec5 78bd 60da 8c3b
000000a0: f331 91bc 2e7f b83c ab98 113c 5bd4 693d
000000b0: c01a 03bd c2d0 a43c cbde e2bb fe40 ad3b
000000c0: 31e4 e5bc b02e 66bd 0141 16bd 230b 4c3d
000000d0: 046f f5bc d133 1b3d d69f 64bd fd4d 00bd
000000e0: baec e4bc 8e84 4a3d 138a 593d 6e61 1bbd
000000f0: a78f 0ebd 50af 87bd 4dda eb3c d660 c23c
0.052300762 -0.029559394 0.030521056 -0.052651864 -0.05973919 -0.034277022 -0.003508217 0.06387001
0.03881944 0.008359127 -0.041836582 0.0124457525 0.0068704593 -0.0049921633 -0.036791407 -0.011719902
0.019311465 0.03226543 -0.054881595 0.031939503 0.05276893 -0.037823096 -0.019487627 -0.051019024
-0.050878964 -0.0029405176 -0.03235602 0.035571598 0.024868375 -0.023426166 0.026841784 0.04511915
0.035007562 -0.050183292 -0.002137977 -0.05744176 -0.047849037 -0.018617291 -0.06073516 0.0042984933
-0.017724013 0.022521582 0.008886497 0.057087284 -0.032007933 0.020119075 -0.0069235316 0.0052872887
-0.028062912 -0.05619687 -0.036683086 0.04981531 -0.029960163 0.037891213 -0.055816494 -0.031324375
-0.027944911 0.04944282 0.053110193 -0.037934713 -0.034804966 -0.06625235 0.028790617 0.023727816

model.graph_type_head.5.bias f4 [8]
00000000: 8058 8ebd 28f8 d03d 9132 c63c 5680 c6bb
00000010: a16d d03d 41f0 7c3d afbd fcbd c049 af3d
-0.06950474 0.10203582 0.024194034 -0.0060577793 0.1017716 0.06175256 -0.12340867 0.085589886

model.difficulty_head.3.bias f4 [64]
00000000: ea8b 333d ca6a 6f3d d0a6 09bd bc2f a53c
00000010: 68fd 113c a086 433c 6cc3 a1bc e43a 87bc
00000020: c4b4 c83c 247f 583d 50ec 06bc 4cb8 8e3c
00000030: e003 393c dc44 b9bc 4c50 17bd 00b0 bdba
00000040: 9804 bd3c a0df f5bc b8e2 d2bc 2046 23bc
00000050: 1ef1 523d 3675 7ebd 20ff 2abc d8bf 9c3c
00000060: 0cc0 3f3d 0ca9 bcbc c0a2 a7bb 789f 683c
00000070: c09e c83c 1ead 1e3d 501d 4abd 9058 0c3d
00000080: e814 943c 02e6 4fbd d09d 5dbd 0cf6 9fbc
00000090: e0b4 22bd 8458 a13c a44e aebc 60aa f1bb
000000a0: e8da 03bc a26e 11bd 9093 06bd 6031 6bbc
000000b0: 7ac1 24bd 60ff d33c 7467 45bd 9285 6f3d
000000c0: 8069 13bd aa18 6a3d a07c 7a3c 4869 e4bc
000000d0: 04d1 3d3d f881 2f3c 24e7 cf3c 70e4 98bc
000000e0: 4cbf 973c dabb 64bd a84b 0b3d 5029 4c3d
000000f0: e080 1f3b fc56 ecbc f061 d03b 58a0 21bd
0.043834604 0.05845145 -0.03360635 0.020164363 0.008910514 0.011933953 -0.019746505 -0.016507573
0.024500258 0.052855626 -0.008235052 0.017421864 0.011292428 -0.022615843 -0.03694181 -0.0014472008
0.02307348 -0.03001386 -0.025742874 -0.00996545 0.05149948 -0.0621235 -0.010436803 0.019134447
0.04681401 -0.023029827 -0.005115837 0.014198177 0.02448976 0.038739316 -0.04934436 0.034264147
0.018076375 -0.050756462 -0.05410558 -0.019526504 -0.039723277 0.019695528 -0.021277733 -0.0073750466
-0.008047797 -0.0355059 -0.03285557 -0.014355034 -0.040223576 0.025878608 -0.048194364 0.058476992
-0.035989285 0.057152428 0.015288502 -0.027882233 0.04634191 0.010712139 0.025378771 -0.018663615
0.018523835 -0.05584321 0.0340077 0.049844086 0.002433829 -0.028850071 0.0063593313 -0.039459556

model.difficulty_head.5.weight f4 [1, 64]
00000000: 705c 13bd 90ca 03bc 400b 54bc 86b6 823d
00000010: c65c abbd ecba dfbd c81e 69bd f62f c83d
00000020: 0a4e 89bd b833 a53c 406d a3bb e8c4 dc3c
00000030: 762f b03d 00de 82ba fa01 823d 5882 a13d
00000040: eef8 dfbd 84eb 003d 2074 b93b 6ee6 b83d
00000050: 2089 d53d a09d 07bc 0078 373c ba57 eebd
00000060: ec7e 163d 1c26 8c3d 9297 e03d 88f8 bf3c
00000070: bcf9 cbbd 2a35 813d e0a0 efbd 6214 be3d
00000080: f472 d6bd 30c0 42bd 60c9 26bd 6cd9 393d
00000090: a83f 64bd 9a4b 9dbd 4ebe a6bd 0c04 6fbd
000000a0: aa47 efbd 00c7 58ba 1647 8dbd 581d 5bbd
000000b0: f654 e53d 768d c8bd 18b9 7dbd f025 76bc
000000c0: 40a7 633c f868 373d b09e f13c 2c88 26bd
000000d0: 001c 603b 8296 9c3d 3c14 213d 0c49 d3bd
000000e0: b0de 11bd 0c84 10bd de77 f63d 3004 2e3d
000000f0: 8005 cd3b 5845 edbc 4aad e1bd 7e4d d4bd
-0.035976827 -0.0080439 -0.012942135 0.0638247 -0.083673045 -0.109243244 -0.05691412 0.09774773
-0.06704338 0.020166263 -0.004987389 0.026949361 0.086028025 -0.0009984374 0.06348033 0.07886189
-0.109361514 0.031474605 0.005659595 0.09028326 0.10426545 -0.008277327 0.011198044 -0.11637826
0.036742136 0.06843206 0.1096641 0.023433939 -0.099597424 0.06308968 -0.11700606 0.092812315
-0.10471144 -0.047546566 -0.04071939 0.045373365 -0.05572477 -0.076804355 -0.081417665 -0.05835347
-0.11683591 -0.00082693994 -0.06898324 -0.05349478 0.11197846 -0.097926065 -0.061944097 -0.015023693
0.013894856 0.04477784 0.029494613 -0.040657207 0.0034196377 0.076458946 0.039325938 -0.10316667
-0.035612762 -0.03528218 0.120345816 0.042484462 0.006256759 -0.02896373 -0.110193804 -0.10366343
